ImitationLearning/GAIL_Init_Params_model/disc.pth (torch, 314495 bytes, 5 tensors)

lstm.weight_ih_l0 f4 [256, 239]
00000000: 2a55 ae3d 82bb f33d c0af 003d 4887 293d
00000010: 0cea f53d 3c76 e63d a082 06bd a84b b03d
00000020: 6a62 bb3d 609d e73c 68af 7b3d 5068 e13d
00000030: 1053 3dbc d09a 503c 905a 2dbc 7884 b2bd
00000040: 8011 983c 48d5 9f3c d893 723d f463 183d
00000050: 5aa5 98bd 44be d2bd f859 c03d 3469 86bd
00000060: ece7 253d 72d1 d1bd 40cb df3d 9c0c 263d
00000070: 68b7 723d 5000 10bc 8ca3 f93d 9886 a9bd
00000080: c4b5 c73d 4850 893c d824 a33c b666 98bd
00000090: 5c54 00bd c027 18bc 2891 e53c 809f 493d
000000a0: 7015 573c 8228 b63d 70ea ffbc 88d8 3d3d
000000b0: 18c2 5b3d f6ed d7bd 42e1 e73d 4eb5 c13d
000000c0: 98aa ff3d 3857 a2bd 2e19 813d 8c6c cf3d
000000d0: 808c e2ba 6cab 9c3d 4cb5 0d3d 4868 64bd
000000e0: 6c4c fb3d ec7a f23d 46df ad3d 58f1 3abd
000000f0: 48c9 523d e055 6fbd 8001 323c b29b 973d
00000100: a896 df3c 4077 4cbb c087 3f3b 8a6b d43d
00000110: 3849 cdbd 72df bbbd cc64 32bd 907c d7bc
00000120: 1836 8b3c ca84 e53d 6ca8 40bd e8ef dfbc
00000130: a4d4 b83d 44a2 c93d dac4 c63d b81e b03c
00000140: 3492 edbd 6084 52bd fc07 f3bd 2098 df3b
00000150: 60c3 ac3b b4bc a43d 1468 543d e07f d03b
00000160: b856 b3bc 4260 a23d c0c8 f83c 28ea 40bd
00000170: 9035 02bd 8e6f f43d 5673 d3bd 28c5 043d
00000180: 90a8 dfbc f40e f93d 9014 c53d 249f 213d
00000190: 2690 a83d 74b9 193d 18c9 5b3d 88b6 d9bc
000001a0: f8b2 e7bd d81e ddbc dcee f4bd 4496 45bd
000001b0: 3873 f8bc 2292 fd3d 0e9d d9bd c4f3 bdbd
000001c0: a69d 863d 8c14 d23d 008b a53c d637 a1bd
000001d0: c263 b73d 06c1 cabd 4474 d2bd e061 aabc
000001e0: d8cb 7dbd f052 90bc 2066 03bd 200a 6a3d
000001f0: da08 cdbd 224b cebd a4c2 133d b07c e5bc
00000200: 460c e2bd 80e4 723c 86be f93d d430 063d
00000210: 0e23 de3d f4cf 89bd d480 a63d 3c93 923d
00000220: 984f 91bc 3843 f93c ee7e eabd 5414 d5bd
00000230: d0c5 9e3c d84d afbd 7ac8 b63d 80ea 18bc
00000240: 2646 aabd 5ebf fa3d f822 b8bd 6818 abbc
00000250: 5c6b 6f3d 1886 b2bd 601d cc3b 9053 8dbc
00000260: 0815 823d 58f8 b0bd 5089 3bbd 58ea 87bc
00000270: c0ca da3b e4df 4abd e8fc 95bd b003 5b3d
00000280: f2e2 943d 344d eebd ac4f 10bd 0c44 243d
00000290: 50cb bfbc c89e fa3c a078 93bc c8f1 d63d
000002a0: 6017 a6bb bce2 ad3d a8d2 2a3d 141c 0f3d
000002b0: 803a 983b 4006 333c a0b9 6fbd 4089 1bbc
000002c0: 9091 1dbd a679 9f3d 3849 73bd 80a4 40bc
000002d0: c4c3 d4bd d020 6a3d 280e a73d c0a9 15bb
000002e0: c42a 1e3d c04c b13b a6e9 aebd 5a81 86bd
000002f0: 80d3 edbc c099 6dbb a4fa a3bd daca a3bd
00000300: 12df 91bd 32cb a6bd 9010 b6bc 8684 f4bd
00000310: 3834 223d 8a02 ccbd b0bc 8d3c a299 ee3d
00000320: c259 ebbd f0fe 903c 1858 ddbd dc08 c33d
00000330: 0279 c33d dcd4 f1bd d826 d73c 3026 9c3d
00000340: 5edf ffbd 00ba 16ba 34ae 11bd 48fe ba3d
00000350: 6080 83bc 003a 183a 6810 c9bc aa8a b43d
00000360: 1043 c0bc 74e2 813d 1453 463d 5ef8 e9bd
00000370: 5025 a6bc 9a9c d03d 84d5 303d dc7c e9bd
00000380: 8458 df3d fc75 593d 909d 44bc be5f 80bd
00000390: 4ca7 c83d b03b 283d 4856 e43c 70d8 cc3c
000003a0: f80f dbbd 407f 9ebb 982f e03c 50d5 503d
000003b0: d6e2 bc3d 74c9 de3d 0cce 64bd b45e 83bd
000003c0: 38eb e13d 78e2 da3c 908f 953d f81a 3d3d
000003d0: 50be f63d c082 cc3b 1048 17bc d001 193d
000003e0: f004 3bbd 2a15 abbd d0d0 f9bc e8d9 c2bc
000003f0: ea35 c63d 88ae ec3c f061 a4bd e6f7 973d
0.085123375 0.11900999 0.03141761 0.04138878 0.120075315 0.1125302 -0.032839417 0.0860818
0.0914963 0.028273284 0.061446577 0.11006224 -0.011555448 0.012732223 -0.010580674 -0.08716673
0.018563032 0.01951088 0.059223026 0.037204698 -0.07453413 -0.102901965 0.0939216 -0.06563035
0.04050438 -0.10245027 0.10927439 0.04053937 0.05925694 -0.008789137 0.12189397 -0.08277625
0.09751466 0.016761914 0.01991503 -0.074414656 -0.03133045 -0.009286821 0.028023317 0.049224377
0.01312767 0.08894445 -0.031239718 0.04634908 0.0536519 -0.10543434 0.113222614 0.09458409
0.1248371 -0.07926792 0.06303631 0.101281255 -0.0017284304 0.07649884 0.034596726 -0.055763513
0.12270436 0.11839852 0.08489852 -0.04564032 0.051461488 -0.058431506 0.010864615 0.074027434
0.027293518 -0.0031199008 0.00292252 0.10372074 -0.10023731 -0.09173478 -0.04355316 -0.026304513
0.016993567 0.11206968 -0.04703562 -0.027336076 0.09024933 0.09845403 0.09705515 0.021499023
-0.11600152 -0.051395774 -0.11866757 0.0068235546 0.005272314 0.08043805 0.05185707 0.0063629
-0.021891937 0.07928516 0.030369163 -0.04709831 -0.031789362 0.1193534 -0.10324733 0.032414585
-0.027302057 0.12161055 0.096230626 0.03945841 0.08230619 0.037530378 0.053658575 -0.026576295
-0.113134325 -0.026992247 -0.11959621 -0.048239008 -0.030328378 0.12381388 -0.10625659 -0.0927501
0.06573038 0.10257825 0.020207882 -0.07871978 0.08954574 -0.099000975 -0.10276082 -0.020798624
-0.06196198 -0.017617673 -0.032079816 0.057138562 -0.10011454 -0.10072924 0.036074296 -0.028013557
-0.11037497 0.014824986 0.121945426 0.03276141 0.1084653 -0.06729117 0.08130041 0.07156989
-0.017738149 0.03042756 -0.11449991 -0.10404268 0.019381434 -0.085597694 0.089249566 -0.009333253
-0.08314161 0.12243532 -0.08991045 -0.020885661 0.058451995 -0.087169826 0.0062290877 -0.01725176
0.06351668 -0.08641118 -0.04578525 -0.016591236 0.0066770017 -0.049529925 -0.07323629 0.053470314
0.07269849 -0.11635819 -0.03523223 0.040103957 -0.023412377 0.03059329 -0.018001854 0.10495335
-0.0050687045 0.08490512 0.041704804 0.034938887 0.0046456456 0.010926783 -0.058526635 -0.009493172
-0.038468897 0.077868745 -0.059396 -0.01175797 -0.10388902 0.0571602 0.08156997 -0.0022836775
0.038615003 0.0054107606 -0.08540659 -0.065676406 -0.029031515 -0.0036254972 -0.0800679 -0.07997675
-0.071226254 -0.08144225 -0.022224694 -0.11939339 0.03960058 -0.09961422 0.017301887 0.11650397
-0.11491729 0.017699689 -0.10807818 0.09523174 0.09544565 -0.11808178 0.02626364 0.07624471
-0.12493776 -0.0005749762 -0.035566524 0.091305315 -0.016052425 0.00058069825 -0.024543956 0.088155106
-0.023469478 0.06342021 0.048419073 -0.114243254 -0.020281464 0.101861194 0.043172374 -0.11400768
0.10905555 0.053091034 -0.012000456 -0.062682614 0.09797534 0.041072547 0.027873173 0.02500555
-0.10696405 -0.0048369467 0.027366444 0.05098468 0.09222953 0.10878268 -0.055860564 -0.064145476
0.110311925 0.026719317 0.07302773 0.046168298 0.12048018 0.0062411726 -0.00923349 0.037355244
-0.045659006 -0.08353646 -0.030495077 -0.023785546 0.09678252 0.028891817 -0.080264926 0.0742033

lstm.weight_hh_l0 f4 [256, 64]
00000000: d488 713d 428a febd 4e6c d13d 4e3b dcbd
00000010: 0818 1e3d 20cb 473c 569d ebbd e4f2 9c3d
00000020: 04b5 21bd 2e73 ecbd d836 3a3d 0cb7 3ebd
00000030: ce0f d6bd 1251 f93d 8087 eb3c 3c6a 123d
00000040: 48f9 c73c e0a0 8f3d 6a51 c1bd 0053 643b
00000050: 1042 efbc 846a 5ebd 6c86 21bd 2a38 b53d
00000060: 08d2 69bd b09e 66bd 00c9 76ba 5c4a 8ebd
00000070: 625d e1bd be62 a33d 8872 cb3c 80db bb3b
00000080: 10ef dcbc 0833 d4bc c074 9cbb 7a33 d43d
00000090: 460a d2bd e05d a3bb 30f8 e13d c0f8 523b
000000a0: aed9 e2bd 8eb9 c2bd 022d 8a3d a02c cbbb
000000b0: a4d4 fa3d aeae e7bd a4f2 90bd 705a 913d
000000c0: d012 7bbc 80e1 e83c 50c1 0f3d 4c21 f5bd
000000d0: 564d bbbd 6029 bbbd ec0f fdbd 9cca 423d
000000e0: c4ed d1bd 2461 2f3d 0021 09ba 80d0 13bc
000000f0: d68a e83d ea7b f8bd 1c28 473d 80b0 e7bd
00000100: 0050 8bbb 1848 fd3d 804d df3a 98da 823d
00000110: 80be d53a 0450 3cbd 8036 d1bb 5484 a0bd
00000120: 9eda f03d c86f cdbc c02c 2dbc 30a9 613c
00000130: d81c dabc 6ccd 83bd 907b e43d 1ed1 dc3d
00000140: 7ca6 6d3d c4c0 a83d 00ff a43d c219 a8bd
00000150: a233 80bd d0c3 5fbd 6468 db3d 365b 803d
00000160: 20aa 113c 66a9 fe3d c88b 2d3d eca8 64bd
00000170: 28ea ab3c 346d bebd 00d4 d73a aa0d 99bd
00000180: 007b da3d 409f f5bd 5007 0f3c f863 893c
00000190: 7ef6 fb3d 740a 27bd 66b4 c2bd f89d 12bd
000001a0: 6c60 6a3d 6407 c7bd bc54 be3d ac75 7fbd
000001b0: 1cf4 063d d808 cdbd c077 13bc a0da 01bc
000001c0: c8dd 48bd c026 c6bc 20e7 f03c 460f e1bd
000001d0: 88fb 1f3d 989d b13c beca 8abd f8da 883d
000001e0: d8ee f03d f80b ef3c 1444 323d e0e8 bebd
000001f0: 7e14 cd3d 2036 09bc 0a34 eabd 0a16 99bd
00000200: b0b2 80bd d0ce 3bbd 90a9 eabd 8067 55bb
00000210: e0b8 a6bb b017 d53d beea b33d e020 4b3c
00000220: b24d 9cbd 78ca 31bd 9852 ba3c 80b6 373d
00000230: 244b 4fbd 82c4 e8bd 9a1e be3d 5042 64bd
00000240: 1088 2cbc 684a dfbd 6ae4 883d 00da 2f3b
00000250: 500d 4fbc 5052 093d 9070 94bd 0227 fa3d
00000260: 4c1d 833d 68c0 ce3c 4885 6b3d 8095 173c
00000270: 90c5 fcbd c858 8d3d 1814 66bd 6899 9c3d
00000280: 9243 b53d fc63 f03d d6ba 9f3d 24d7 60bd
00000290: 3c52 d8bd 38d7 fd3c b469 013d 72c9 f0bd
000002a0: 38ec 82bc 58d2 98bc 0836 5fbd e437 a43d
000002b0: ae79 853d 20fe 61bc c8d1 a8bc 042d a2bd
000002c0: 1870 a53d a4fa 993d c057 fdbd 0613 87bd
000002d0: 0023 363d 8053 cb3a 5494 fbbd 00c8 b23a
000002e0: 509c 05bc 100b 74bd 000e c7ba 2a71 fcbd
000002f0: 8cfc e0bd 0c57 1ebd 0000 a1b6 7068 1fbc
00000300: d4ae 72bd e014 73bd 2460 f03d e620 ad3d
00000310: e0a7 57bd e028 4a3c 203c 613c 90bf 4e3d
00000320: a80d 423d 7038 9b3d 48a7 8e3d cacd b73d
00000330: ea74 c63d 300e a7bd 9c66 84bd d4b4 12bd
00000340: 86a4 f7bd a02f 99bd 1036 a1bc 8082 6c3b
00000350: c0b4 6b3b 6c03 59bd 90e3 313c f848 30bd
00000360: 5895 573d 2471 c03d c089 093c 90dc 613d
00000370: b476 c9bd 38c5 b13c 9053 a9bc 464a 98bd
00000380: 908a 3f3c 143f 553d 5643 e1bd e6f5 b0bd
00000390: aaef e93d 3a4f f73d d816 01bd 60e1 de3b
000003a0: 28d2 923d 844a aabd c87b bf3c d42d 843d
000003b0: 18e3 513d 1427 9fbd 400b f63c 8269 d13d
000003c0: e46f b3bd 783a 55bd b8df 95bc 5cab 72bd
000003d0: 4089 e23c 1c8b 3bbd 76a5 a6bd 40c0 d93d
000003e0: 92ae c1bd 22a3 87bd e282 c13d 1020 d33d
000003f0: b8ef b6bc fee0 a93d fe8a b53d c891 e5bc
0.05896838 -0.12428714 0.102257356 -0.10753499 0.038597137 0.012194425 -0.11504619 0.07663515
-0.03947927 -0.11545406 0.04546246 -0.046561286 -0.10452233 0.12173666 0.028751135 0.035745844
0.024410859 0.07013106 -0.094393566 0.003483951 -0.029206306 -0.0543008 -0.039434835 0.08848603
-0.057085067 -0.05630368 -0.00094141066 -0.06947777 -0.110041395 0.07977818 0.024834886 0.0057329535
-0.026969463 -0.02590324 -0.00477466 0.10361381 -0.10255866 -0.004985556 0.11033666 0.0032191724
-0.11076675 -0.09508048 0.06746866 -0.006200388 0.12247589 -0.113126144 -0.0707753 0.07097328
-0.0153243095 0.02842784 0.035096467 -0.119692415 -0.0914561 -0.09138751 -0.123565525 0.047556505
-0.10250428 0.04281725 -0.00052310526 -0.009021878 0.11354606 -0.1213301 0.048622236 -0.113129616
-0.00425148 0.123672664 0.0017036647 0.0638935 0.0016307384 -0.045974746 -0.0063846707 -0.078377396
0.11760448 -0.025077716 -0.010569751 0.013773248 -0.026625082 -0.064356655 0.1115638 0.107820734
0.0580201 0.08239892 0.0805645 -0.08208038 -0.06259848 -0.0546301 0.1071327 0.06267397
0.008890659 0.12434654 0.042369634 -0.05582516 0.020985678 -0.092981726 0.0016466379 -0.07473309
0.10667992 -0.11993265 0.008729771 0.016771302 0.12302874 -0.040781453 -0.095070645 -0.035795182
0.05722086 -0.097182065 0.092935055 -0.06236808 0.032947645 -0.100114524 -0.009000719 -0.007925659
-0.049039632 -0.0241884 0.029407084 -0.10989241 0.03905824 0.021681592 -0.06776951 0.0668239
0.11764306 0.029180512 0.043521956 -0.09321761 0.10013674 -0.008374721 -0.11435707 -0.07474907
-0.06284082 -0.04585153 -0.11458123 -0.0032562912 -0.005087957 0.10404909 0.08785008 0.012397975
-0.07632007 -0.04340598 0.022744462 0.04485178 -0.05060877 -0.11365606 0.092831805 -0.055727303
-0.010530487 -0.10902864 0.066841915 0.002683282 -0.012637451 0.033525765 -0.07248032 0.122144714
0.06402072 0.02523823 0.057500154 0.009251952 -0.123423696 0.06901699 -0.056171507 0.076464474
0.08850779 0.117378205 0.07799308 -0.054892674 -0.1056256 0.030986413 0.031594947 -0.11757173
-0.015981779 -0.018654987 -0.054494888 0.08018473 0.06517349 -0.013793498 -0.020607844 -0.07918742
0.08078021 0.07518509 -0.123702526 -0.06595425 0.044466972 0.0015512556 -0.12284151 0.0013639927
-0.008154944 -0.059580863 -0.0015186667 -0.12326272 -0.109856695 -0.038657233 -4.798174e-06 -0.00972949
-0.05924876 -0.05934608 0.11737087 0.084535405 -0.052650332 0.012338847 0.013747245 0.050475657
0.047376305 0.07579124 0.069655 0.08974798 0.09690268 -0.08157003 -0.06464884 -0.035816982
-0.12091927 -0.07479787 -0.0196791 0.0036088526 0.003596589 -0.05298178 0.010857478 -0.04303834
0.05263266 0.0939658 0.008394659 0.055141985 -0.09837094 0.021700487 -0.020669729 -0.074360415
0.011690751 0.05206211 -0.109991714 -0.086406514 0.114226654 0.12075658 -0.031515926 0.006801769
0.071689904 -0.08314994 0.023374453 0.064540535 0.051241964 -0.077711254 0.030034661 0.10225202
-0.08761576 -0.052057713 -0.018295154 -0.059245452 0.027653337 -0.045786962 -0.08137028 0.10632372
-0.09457125 -0.06622912 0.09448792 0.1030885 -0.022331104 0.08294867 0.08864401 -0.028023615

lstm.bias_ih_l0 f4 [256]
00000000: faa5 b7bd 08b4 1abd 34aa 11bd 2067 be3d
00000010: d89e 953c e0a6 113d 440e ffbd 20b5 283d
00000020: 7e3d e4bd a4cf c8bd 6202 f8bd b469 5e3d
00000030: e898 90bc 34f6 5f3d 405b d33b 80f0 853a
00000040: b8a5 b93c 90f8 d1bd 8014 d93b 825e c8bd
00000050: f83e 6c3d 3c4a d93d 80a4 793b 0013 453c
00000060: 4e84 aa3d 282d efbc ee38 ac3d 7011 63bc
00000070: b8a6 7bbd a080 9cbc ea67 f13d 0c92 cb3d
00000080: 9051 3cbc 4038 babc 3ab1 a9bd b6b3 a03d
00000090: 582e e23c e040 413c aac5 eabd 3ee0 b1bd
000000a0: 5056 913d 48bf c33d 7c0c 37bd d07f 06bc
000000b0: 0089 ddba b000 16bd 8aa7 853d 78a1 913d
000000c0: 46fb fd3d c03d 6a3c decc a0bd 109c 01bc
000000d0: e067 9b3c e464 d13d 281b c4bc 4cc9 75bd
000000e0: ea25 d93d 505a 45bd 3615 e43d fa4a 943d
000000f0: 1087 c33c 30ac f43d a07e b63d 5c4f 83bd
00000100: 50d6 62bd 00d3 76ba 5cc0 873d 5e0f 80bd
00000110: f4b0 3cbd 5462 d5bd e4c5 323d a084 b03d
00000120: 9663 e03d 08bd 4e3d c8cc b43c 24f0 ce3d
00000130: 0c29 ac3d 680a 463d 70e8 863d 009d 5dba
00000140: 12b8 c23d 60a4 223c 0cbe 40bd 58cd 903c
00000150: 08c5 ecbd c025 b23c 00a0 74ba 6889 d3bd
00000160: 004a b5ba 2adb e73d f0eb d23c e071 9abc
00000170: d404 cc3d 7cd8 fd3d 5612 c03d fc41 14bd
00000180: f0ec 5dbc d0cd ea3c 4c9b d63d 5480 293d
00000190: 70e3 f3bc ac4f b2bd e0f1 663c 203a e43b
000001a0: f4f7 06bd e24b abbd b06e 10bd 2cbd 4ebd
000001b0: 706b 753c 70d4 ff3c 5ce6 373d e657 fdbd
000001c0: 3cbc 993d f2ad a5bd a046 fbbd 58c8 b4bd
000001d0: d0bc 28bc 44aa 26bd 80b8 193c 96fb e0bd
000001e0: 8c52 353d 2c7e fdbd f2cf b2bd b477 4cbd
000001f0: 3a07 a83d e0a6 023d 5050 f83c 80f5 debb
00000200: 4819 a93d 180c c4bd 00b3 9fbd 703f 373d
00000210: 303c 4b3c 58a4 3bbd 4c00 49bd 1264 e63d
00000220: e84c ce3d eca9 a43d e0f2 80bc 60f6 0b3c
00000230: 5ca1 b93d 90b4 d93c 22de b6bd 0081 f2bc
00000240: ac3a 0abd 949e 46bd 88d9 81bc 40dd d03b
00000250: ac30 94bd 244a bc3d 7ca1 8dbd 68db 77bd
00000260: 343b 113d a88b 813d 0492 163d dcb8 b93d
00000270: 6e5a 973d f840 9cbd 4cb5 bdbd fac7 e7bd
00000280: 14a1 ffbd 6c52 463d 3083 03bd 4e74 9abd
00000290: f827 ed3d 201b b93d e0ff 4e3d 5cdb bfbd
000002a0: 544d ef3d e808 cd3d c21a bebd d4ce 123d
000002b0: e4bf 65bd 741a e8bd 18d5 8bbd eac3 90bd
000002c0: f258 9dbd 78d4 d1bc ac6a debd 20cc eebd
000002d0: 6cb3 6bbd ba30 d2bd 8ecd bf3d b203 c4bd
000002e0: ae16 b13d ecc8 f0bd 4635 e9bd ec21 9dbd
000002f0: 70ba 463d 7e9c f63d 8c96 613d 98cb f1bc
00000300: 7e95 d3bd a41d df3d 5ab8 933d 1862 febc
00000310: 7001 8e3c 58df b2bd 7ca2 10bd 76c2 bcbd
00000320: 8e04 b33d bce0 563d 8451 bf3d 8c1b 33bd
00000330: a496 793d 00d8 b4ba d886 1bbd c460 9d3d
00000340: f0f9 313d 1a4c 9dbd bc77 2a3d 68e9 e3bd
00000350: c09e 2b3b 705b 6bbc a2b7 b1bd 88ec ba3c
00000360: 9041 433d 0c3d 56bd 8cdb 33bd ba2e 8c3d
00000370: f0cd 983c 2ceb ebbd 786e d1bd 2893 86bc
00000380: d863 563d 8477 db3d eab8 af3d 9cbf e53d
00000390: b854 03bd d02a a2bc 2423 cf3d 6ca0 493d
000003a0: c0a8 3b3b 32e8 cebd 3820 ac3d 5895 e7bd
000003b0: 0040 5a37 a209 d13d d80e ba3c 4065 fc3d
000003c0: 743b 303d 3ab1 d03d fee7 a83d 50f4 62bc
000003d0: 04c0 103d 3cdb e8bd d496 42bd 66af c3bd
000003e0: e07c d5bd 78ea 72bd ac0a 8dbd d0b9 a93c
000003f0: 8c91 483d 788a 94bc c2bc ac3d e058 5cbc
-0.089672044 -0.037769347 -0.03556271 0.09297013 0.01826422 0.035559535 -0.12453893 0.04118836
-0.11144541 -0.09805229 -0.121098295 0.054300025 -0.017651036 0.054678157 0.006450087 0.0010218769
0.022662029 -0.10252488 0.0066247582 -0.09783651 0.05767724 0.10609862 0.0038092434 0.012028456
0.08326016 -0.029196337 0.08409296 -0.013859138 -0.061438292 -0.019104302 0.11787398 0.099399656
-0.011494055 -0.0227319 -0.082857564 0.07846777 0.027609989 0.011795253 -0.11463483 -0.08685349
0.07096541 0.095579684 -0.04468964 -0.008209184 -0.0016901791 -0.03662175 0.06526096 0.07110876
0.12401442 0.014296949 -0.07851575 -0.007910743 0.01897043 0.102243215 -0.02393873 -0.060006425
0.10602935 -0.04818183 0.11136858 0.07240863 0.023868114 0.11946905 0.089108706 -0.06411621
-0.055380166 -0.0009415597 0.066284865 -0.06252931 -0.046067193 -0.10419145 0.043645754 0.08619046
0.109564945 0.050473243 0.022070304 0.10104397 0.084062666 0.048349768 0.06587303 -0.0008453876
0.09507765 0.009926885 -0.047056243 0.01767604 -0.11561018 0.021746516 -0.0009331703 -0.103289425
-0.0013831258 0.11321099 0.02574727 -0.018853128 0.099618584 0.12394807 0.09378497 -0.03619574
-0.01354526 0.028662592 0.10478839 0.04138215 -0.029771537 -0.087066025 0.014095753 0.006964937
-0.03295131 -0.08364083 -0.03526181 -0.050473377 0.014979228 0.031229228 0.044897422 -0.12370281
0.07506606 -0.08089818 -0.1226933 -0.08827275 -0.010298923 -0.04068972 0.009382367 -0.10985486
0.044268176 -0.12377581 -0.08731069 -0.049918845 0.08204503 0.031897426 0.030311733 -0.006804168
0.08256775 -0.09572619 -0.077978134 0.044738233 0.012404487 -0.045811027 -0.04907255 0.11249556
0.100732625 0.080402225 -0.015740812 0.008542627 0.0906398 0.026575357 -0.08929087 -0.029602528
-0.03374736 -0.048491076 -0.015850797 0.0063740313 -0.07235846 0.09193829 -0.06915566 -0.060511976
0.03545685 0.063254654 0.036760345 0.09068462 0.07390295 -0.07629579 -0.09263095 -0.113174394
-0.12481895 0.048418447 -0.032107532 -0.075417146 0.11579889 0.09038377 0.05053699 -0.09368011
0.11684671 0.10011464 -0.092824474 0.035841778 -0.056091204 -0.113331705 -0.06827754 -0.07068618
-0.076829806 -0.025614008 -0.1086019 -0.116600275 -0.057544157 -0.102632 0.09365378 -0.09571017
0.08646904 -0.11757073 -0.11387114 -0.07672486 0.048517644 0.12041567 0.055075213 -0.029516026
-0.10331248 0.108943254 0.07212897 -0.031052634 0.01733467 -0.08734006 -0.035311207 -0.09216778
0.08741103 0.052460417 0.0934172 -0.043727443 0.060934678 -0.0013797283 -0.037970394 0.07684472
0.04345125 -0.07680531 0.041618094 -0.11128503 0.0026187152 -0.014365062 -0.08677603 0.022817865
0.047669947 -0.052304313 -0.043910548 0.0684485 0.018652886 -0.11519465 -0.10226148 -0.016427591
0.052341312 0.10716155 0.085801914 0.11218187 -0.032063216 -0.019795805 0.101141244 0.049225256
0.0028634518 -0.101028815 0.08404583 -0.11307782 1.3008714e-05 0.102069154 0.022712156 0.123239994
0.04302545 0.10190053 0.08247374 -0.013852194 0.03533937 -0.11369941 -0.047507122 -0.09554939
-0.10424209 -0.059305638 -0.06886801 0.020718485 0.04896693 -0.018132433 0.0843444 -0.013448924

lstm.bias_hh_l0 f4 [256]
00000000: 8430 60bd eab1 aa3d 709d e5bd 58f9 6e3d
00000010: b480 8c3d 1077 cfbd 5c78 afbd 4030 56bb
00000020: 6ce8 c53d 40a8 e8bb bac5 e43d bc93 22bd
00000030: 2af2 973d b86c d33d d428 26bd 98dc b53c
00000040: 5edb fa3d acc3 b9bd a0d2 ba3c 3ebf b83d
00000050: c89b 52bd f40b d7bd 6a1a fa3d f0ff 9f3c
00000060: 4a02 e8bd 7c65 283d 44fa cabd 7a92 8bbd
00000070: 4895 c33c 6cc9 cc3d 34fb a8bd dcf5 973d
00000080: d87b abbd 1205 fcbd 2a67 94bd 58dc 9c3c
00000090: 7017 9ebc f0dd ac3d aa26 a43d 1437 843d
000000a0: 20ed 803c f4ab 1dbd 8a7c acbd ec94 383d
000000b0: 10f5 d8bd 04b8 acbd b8f9 fb3d 48e5 b93d
000000c0: bc94 e4bd 00cc bdba b8d8 943d 1cec 633d
000000d0: 5022 4bbc 9e9e d8bd 784a e53c c670 aebd
000000e0: c01e 10bb 8402 b63d fa86 a4bd c461 1e3d
000000f0: b87d 8a3c 7ced a03d 8c2a f0bd 78b1 963c
00000100: 086c e4bd 52b8 aabd c014 d0bc a403 73bd
00000110: 08a5 9f3d 3aff d73d 787d edbd 0c61 763d
00000120: 56f1 97bd 02f0 f63d ca1d c13d 6c23 f8bd
00000130: d87d 963c fcec 883d d8e0 87bd d075 f33c
00000140: 90d2 79bd 6897 12bd e22b a7bd 7079 8e3d
00000150: b01d 1cbd 14c3 9dbd 5098 32bc 6c88 fcbd
00000160: a4ac 95bd 287f 933c 0029 e93a 12a7 9ebd
00000170: f0ed a3bc b027 7ebc 9074 97bc 0084 ac3c
00000180: 201f 923d 1416 fcbd 3c88 9fbd 4016 193c
00000190: b0d7 a8bc 2ec5 af3d 8041 653b fe4c 9dbd
000001a0: d8e9 5c3d d24c a13d 2021 93bc fcff 36bd
000001b0: 0485 1dbd 3c9a 6cbd 207e dcbd 50cf 0d3d
000001c0: a222 e5bd c4ab aa3d cc13 1d3d b8bd 0b3d
000001d0: 9008 fcbd 48a4 e2bd b099 703d c814 78bd
000001e0: 401a 2a3c 0a10 b93d c003 f0bd 40e6 223d
000001f0: 100b 9b3d 3842 06bd e858 d33d 608a 0d3d
00000200: 1841 853c c228 c93d 8823 eebd 04ba 423d
00000210: 340f 00bd c271 843d 402b ddbb d086 07bc
00000220: 2e4e 803d 44f0 16bd c2cc f2bd 06e8 9dbd
00000230: c04c 293d 702b 443d 5093 7fbd 18c4 94bc
00000240: c072 c13c c080 7cbd e66c b33d 3037 113d
00000250: 3896 9ebc 22e9 cdbd 446e 8cbd 0025 a4ba
00000260: 9e5d cfbd 407c 01bb 3cf5 663d 8c51 38bd
00000270: 84db 21bd 3c0d 2b3d 2449 683d 5c68 0e3d
00000280: 90f0 5cbc 6004 be3d 2e55 863d c407 da3d
00000290: 8662 84bd 8e99 91bd b039 ddbc 6e45 8cbd
000002a0: d40d 3b3d 78d3 a33d 8032 723c a049 a03c
000002b0: eaab e73d 4872 cf3d 9462 c13d 6047 44bc
000002c0: ec3c 25bd 589d 703d 90bc dd3c de51 833d
000002d0: 6009 1ebc 1c92 53bd 3601 a63d f027 abbc
000002e0: 1808 dd3d 1e47 d53d d6aa b3bd 088b ac3c
000002f0: 10ed 92bd cc80 cf3d 8000 85bb 8063 5b3c
00000300: 18e9 65bd 30c5 e9bc 7802 b0bd 549f 55bd
00000310: 849a 9e3d 90e3 29bd 02d0 b53d a67d cbbd
00000320: c087 e23d a057 263d 860e ed3d 860a b73d
00000330: 5a79 c2bd dcf1 3e3d cc82 3abd b6e4 b2bd
00000340: 96ff 84bd 7889 8e3d c0f8 27bb 30bc 07bd
00000350: 702e 283d 3c72 1d3d c859 dbbd e02f db3d
00000360: 9090 c5bc 0eaf abbd 902b 9cbd 58fc e53d
00000370: 20bd 92bb 30dc 1d3d cc74 d7bd b64a edbd
00000380: 52f6 96bd f453 fcbd c0a5 ba3c 18f2 d73d
00000390: 6017 0e3d 30d6 d33c 20a2 31bc c483 cbbd
000003a0: 5ce4 98bd 8094 793b f2f5 f8bd aac5 febd
000003b0: e691 87bd 9005 843c 60ce f13b 3cd5 0c3d
000003c0: 804e 30bd 34b2 aebd fe76 a83d cc46 5abd
000003d0: 2c28 2e3d 381a 7cbd 48ea dc3d 802b f93b
000003e0: fe1e f4bd d0d1 a3bd ce56 f83d 7c6c e3bd
000003f0: 8070 1e3d aceb f73d 746a 703d e0ba b9bc
-0.054733768 0.08334716 -0.112116694 0.05834326 0.06860486 -0.10130131 -0.085678786 -0.0032682568
0.096634716 -0.007100135 0.11170526 -0.03969167 0.07419236 0.10323471 -0.04056628 0.022199914
0.12248872 -0.090705246 0.022805512 0.090208516 -0.051418096 -0.10500327 0.12212069 0.01953122
-0.113285616 0.041112408 -0.09911016 -0.068150476 0.023874894 0.09999356 -0.08251038 0.07419941
-0.08373231 -0.123056546 -0.072462395 0.019148037 -0.019298285 0.08440769 0.08015187 0.06455818
0.01573807 -0.038494065 -0.084221914 0.045063898 -0.10593617 -0.08433536 0.123034894 0.09076935
-0.11161181 -0.0014480352 0.07267898 0.055645093 -0.012398317 -0.10577129 0.027989611 -0.085176036
-0.0021990985 0.088871986 -0.08033557 0.038667455 0.01690565 0.078577965 -0.11726865 0.01839517
-0.11153418 -0.083359376 -0.02540052 -0.059329644 0.07795149 0.105467275 -0.11596197 0.060151145
-0.07419078 0.120574966 0.0942951 -0.12116131 0.018370554 0.06685826 -0.066346824 0.029719263
-0.060991824 -0.035788924 -0.08162667 0.06956756 -0.03811425 -0.07703224 -0.010900572 -0.12330708
-0.07308319 0.018004969 0.0017788708 -0.0774671 -0.020010918 -0.015512392 -0.018488199 0.021059036
0.07134843 -0.123088986 -0.077896565 0.009343684 -0.02061066 0.08582531 0.0034981668 -0.07680701
0.05393395 0.078759804 -0.017960131 -0.04467772 -0.03845693 -0.057764277 -0.10766244 0.034621537
-0.11188246 0.08333543 0.038348958 0.034116477 -0.12306321 -0.110664904 0.058740318 -0.060566694
0.010382235 0.09036262 -0.11719465 0.039770365 0.075704694 -0.032777995 0.10319692 0.034555793
0.01626639 0.09822227 -0.11627871 0.04754068 -0.0312645 0.0646701 -0.0067495406 -0.008271888
0.062649116 -0.03685023 -0.11855461 -0.077102706 0.04133296 0.047892988 -0.062396348 -0.018159911
0.023614287 -0.061646223 0.08761005 0.03545302 -0.01935874 -0.10054232 -0.06856969 -0.0012523234
-0.10125278 -0.0019757897 0.056386217 -0.044999644 -0.039515987 0.04176067 0.056710377 0.034767494
-0.013485089 0.09278178 0.065592155 0.106460124 -0.06464104 -0.07109366 -0.027005047 -0.0684918
0.045667484 0.07999319 0.014782548 0.019566357 0.11312087 0.10129219 0.094426304 -0.011979908
-0.040341303 0.058743805 0.027067453 0.06412099 -0.00964579 -0.051653013 0.081057 -0.020893067
0.107925594 0.10413955 -0.08772819 0.021062389 -0.07174122 0.10131988 -0.0040588975 0.013390422
-0.0561305 -0.02853641 -0.08594221 -0.0521539 0.07744315 -0.041476786 0.08877565 -0.09936075
0.110610485 0.04061091 0.11575036 0.08937554 -0.09495802 0.046617374 -0.045534894 -0.087350294
-0.06494062 0.06959814 -0.0025630444 -0.033138454 0.04105991 0.03843902 -0.10710484 0.10702491
-0.024116784 -0.083829984 -0.076254964 0.112297714 -0.004478112 0.038540065 -0.10520324 -0.115865156
-0.073712006 -0.123207 0.022784114 0.105442226 0.03469026 0.025858968 -0.010841876 -0.09937242
-0.07465431 0.0038082898 -0.12156285 -0.12440045 -0.06619625 0.016115934 0.007379338 0.034383044
-0.043043613 -0.08530083 0.08225821 -0.053290173 0.04251878 -0.06154844 0.10786873 0.0076040626
-0.11919974 -0.07999003 0.12125932 -0.11104676 0.038681507 0.12105498 0.05869527 -0.022672117

fc.weight f4 [1, 64]
00000000: e6e2 c9bd 44f8 25bd 0e9a f33d 6055 ad3c
00000010: 7025 00bd 7881 bebd a0c5 a43d aea7 a8bd
00000020: 1063 6abc a294 c43d e4c0 98bd 3cd7 223d
00000030: fe8d f6bd d84a a83d b480 eb3d 045f 9c3d
00000040: e056 b63d 848d e33d 70a2 823d 78fb 993c
00000050: d8b8 d23c 207b 3f3c d8fb 11bd 00e8 d5b8
00000060: 7c50 92bd 7813 8bbd ac12 16bd 8411 7fbd
00000070: 7805 60bd 700c 36bc fcfb 3a3d 40e0 3c3b
00000080: d0cf 263c 0048 81bd 9ead ecbd 6cf5 3a3d
00000090: b879 b0bd 88f2 863d b0c4 b83c b49a fb3d
000000a0: c6b7 ab3d 64fe 3fbd 60ee 653c 5064 d33c
000000b0: 2086 86bd 2c43 64bd 0ca6 0c3d 58c3 8a3c
000000c0: 0832 ba3c d816 5b3d 58a0 21bd 4e0f ac3d
000000d0: d0e4 b63c 602f 16bd c0f9 dbbc 0854 0bbd
000000e0: e8db 58bd ccbe 393d b0b3 18bc 04f0 a3bd
000000f0: b05f 063d 1886 58bd 3c34 5abd 24d2 743d
-0.098577306 -0.040519968 0.11894618 0.021158874 -0.031285703 -0.09302038 0.080455065 -0.08235107
-0.014305845 0.09598662 -0.07458666 0.039756045 -0.120388016 0.082174 0.114991575 0.0763531
0.08903289 0.11110976 0.06378639 0.018796667 0.025722906 0.01168707 -0.035640568 -0.00010199845
-0.071442574 -0.06790823 -0.0366389 -0.062272564 -0.054692715 -0.011111364 0.045650467 0.0028820187
0.010181382 -0.06312561 -0.11556552 0.04564421 -0.08616966 0.06589228 0.022554725 0.12285367
0.083846614 -0.046873465 0.014033884 0.025804669 -0.06568551 -0.055728123 0.034338042 0.01693885
0.022728935 0.053488582 -0.039459556 0.08401357 0.022325903 -0.036666274 -0.026852489 -0.034015685
-0.052944094 0.045347974 -0.009320185 -0.08004764 0.0328061 -0.052862257 -0.05327247 0.05977072
